AC_3_40.model (torch, 52495 bytes, 7 tensors)

weight f4 [32, 300]
0	0xbe3d8bc2	-0.18510345
1	0xbd2cafa1	-0.04215968
2	0x3ce891d8	0.028389856
3	0xbccc838c	-0.02496507
4	0x3d1fd7dc	0.03902422
5	0xbcf5db29	-0.03001173
6	0x3c80819c	0.015686803
7	0xbe338bcd	-0.17533799
8	0xbc1e5204	-0.009663109
9	0xbdf84429	-0.121223755
10	0xbe666338	-0.22498786
11	0x3d0d2ca8	0.034466416
12	0x3d47a2c6	0.048739217
13	0xbc6b4f94	-0.014362235
14	0xbaa77be0	-0.0012778006
15	0xbd40b5e5	-0.04704847
16	0xbe096731	-0.1341827
17	0xbd0bb8b2	-0.034111686
18	0xbe5d7abe	-0.21628854
19	0x3d4bdc42	0.0497706
20	0xbe2461e6	-0.1605297
21	0xbe504e87	-0.20342456
22	0x3d631622	0.05544103
23	0x3b9a9f40	0.004718691
24	0xbe26a425	-0.16273554
25	0x3d020636	0.031744204
26	0xbc469b60	-0.012122005
27	0xbdfa1b95	-0.12212292
28	0xbe3dab9a	-0.18522492
29	0xbe6c954a	-0.23103824
30	0x3d54697e	0.051858418
31	0x3cfadb04	0.030622013
32	0xbd48e303	-0.04904462
33	0x3d686d1a	0.056744672
34	0xbe6b0b63	-0.22953562
35	0xbd621ae8	-0.05520144
36	0xbd0eb64e	-0.034841828
37	0xbe6f3b7c	-0.23362535
38	0xbc58551c	-0.013203885
39	0xbe66b314	-0.2252925
40	0xbe6b4284	-0.22974592
41	0xbe20a8a6	-0.15689334
42	0x3cf18314	0.029481448
43	0xbe22099d	-0.1582398
44	0xbe1a59ed	-0.15073366
45	0xbd2e466a	-0.04254762
46	0xbe0d3180	-0.13788414
47	0xbe04dc57	-0.12974678
48	0xbe1a6d59	-0.15080775
49	0x3d697470	0.05699581
50	0xbe677a3f	-0.22605227
51	0xbd0deb81	-0.034648422
52	0x3c678888	0.014131673
53	0xbe2799e4	-0.16367298
54	0xbe05903b	-0.13043301
55	0x3d599e28	0.053129345
56	0x3c3b5fc0	0.011436403
57	0x3d465116	0.048417173
58	0xbce4e9a8	-0.027943447
59	0xbd52e777	-0.051490273
60	0x3d65d182	0.056108005
61	0xbd0eb7bc	-0.03484319
62	0xbbb3bd88	-0.0054852404
63	0x3b35cf50	0.0027741976
64	0x3d34e02a	0.044159092
65	0x3bbf0e50	0.0058305636
66	0xbe19f629	-0.15035309
67	0x3d4fffde	0.050781123
68	0xbc83919a	-0.01606064
69	0xbbb15a30	-0.0054123625
70	0xbe4f6582	-0.20253566
71	0x3d2d0162	0.042237647
72	0xbe0af3d6	-0.13569579
73	0xbd22f629	-0.039785538
74	0x3b6ee590	0.0036452748
75	0xbe54bda1	-0.20775463
76	0xbcd2461a	-0.025668193
77	0xbd175016	-0.03694161
78	0x3d3fd41e	0.04683315
79	0xbe30f8a0	-0.17282343
80	0x3c363188	0.011120208
81	0xbe4a71ec	-0.1977002
82	0xbe61e23a	-0.22058955
83	0x3c5eeab0	0.013605759
84	0x3c34e8d0	0.011041835
85	0x3c036ed0	0.008022025
86	0xbd5c7c3d	-0.05382942
87	0xbd5a33e8	-0.053272158
88	0xbe0f30e2	-0.13983491
89	0xbe33717b	-0.17523758
90	0xbe019066	-0.1265274
91	0xbcf5183f	-0.029918788
92	0xbe14a768	-0.14516985
93	0xbc42350c	-0.011853468
94	0xbe6d2c67	-0.2316147
95	0x3b20ac80	0.002451688
96	0xbe52bc30	-0.205796
97	0xbe400ab9	-0.1875409
98	0x3cb211f4	0.021737076
99	0xbe14877c	-0.14504808
100	0xbceb6efb	-0.028739443
101	0x3d1e8c88	0.03870824
102	0x3d143b1a	0.036189176
103	0xbd3e0419	-0.046390627
104	0xbcd99d04	-0.026564129
105	0x3ad2ae00	0.0016073585
106	0xbaa9c540	-0.0012952462
107	0xbc99cad4	-0.018773474
108	0x3cb8ca80	0.022557497
109	0xbc4daa0c	-0.012552749
110	0xbd02a896	-0.031899057
111	0xbc07da38	-0.0082917735
112	0xbb310e40	-0.002701655
113	0x3d001034	0.031265453
114	0xbd03e962	-0.032204993
115	0xbaef6600	-0.0018264651
116	0xbacf5320	-0.001581762
117	0xbc6834cc	-0.014172744
118	0x3d57d1ce	0.05269032
119	0xbd6048e6	-0.05475702
120	0x3c25d7b0	0.010122225
121	0xbd2c7143	-0.042100202
122	0xbd670660	-0.056402564
123	0x3d16962c	0.03676431
124	0xbc83abac	-0.01607307
125	0xbc9ed0a4	-0.019386597
126	0x3bf48c50	0.0074630156
127	0xbd3dcacc	-0.04633598
128	0x3d41623a	0.047212817
129	0x3c891c28	0.016737059
130	0xbd41ad21	-0.04728425
131	0x3a1cf880	0.0005987957
132	0xbd331e43	-0.04373003
133	0xbc0d1724	-0.008611474
134	0x3a06d980	0.00051441044
135	0xbcea45cd	-0.028597737
136	0xbc23c938	-0.009996705
137	0xbcee6070	-0.02909872
138	0xbc9069a4	-0.017628498
139	0x3d0bba18	0.03411302
140	0xbc755c44	-0.014975611
141	0x3d496e82	0.049177654
142	0x3d683780	0.056693554
143	0xbd0bc234	-0.034120753
144	0x3d493dcc	0.0491312
145	0xbb592360	-0.0033132657
146	0x3cd737c8	0.026271716
147	0x3d00ffe6	0.031494044
148	0x3d5899a0	0.052880883
149	0x3c3d55c0	0.011556089
150	0xbc44c258	-0.012009226
151	0xbdf70230	-0.12060964
152	0xbd4e8d1a	-0.050427534
153	0x3b7de400	0.0038740635
154	0x3d247790	0.040153086
155	0x3d3e7860	0.046501517
156	0x3e65fdf1	0.22460152
157	0xbb8047e8	-0.003914822
158	0xbdf62d4f	-0.12020361
159	0x3c35a048	0.011085577
160	0x3d356fc8	0.044296056
161	0xbc133b28	-0.008986272
162	0xbdfd1e5f	-0.123593085
163	0xbd576862	-0.05258978
164	0xbd61833b	-0.05505679
165	0xbbec2898	-0.0072069876
166	0xbd4bb2ae	-0.04973095
167	0x3c0c2578	0.008553855
168	0x3d3509f8	0.04419896
169	0xbd4c0384	-0.04980804
170	0x3828e800	4.0270388e-05
171	0xbcbdc31e	-0.023164328
172	0x3c905504	0.017618664
173	0xbd63dfff	-0.05563354
174	0xbcf3b289	-0.029748218
175	0xbca6d984	-0.020367391
176	0xbc931088	-0.017952219
177	0xbafb30c0	-0.0019164309
178	0xbcc21c9c	-0.023695283
179	0x3cb940f0	0.022613972
180	0xbc7bd9f0	-0.015371785
181	0xbd2136de	-0.039358966
182	0xbcafe480	-0.021471262
183	0xbd1e1c28	-0.03860107
184	0x3c884ab8	0.016637191
185	0xbdf77cf2	-0.12084378
186	0x3d20c8fe	0.03925418
187	0xbbe94598	-0.007118892
188	0xbbf4fa50	-0.0074761286
189	0xbd457c53	-0.048214268
190	0xbcd7e2aa	-0.026353199
191	0x3cd07fcc	0.025451563
192	0x3d30d6dc	0.043173656
193	0x3e557ded	0.20848818
194	0xbc4e1260	-0.012577623
195	0x3b330fe0	0.0027322695
196	0xbc8dc092	-0.017303739
197	0xbb5012f0	-0.003174957
198	0x3d467908	0.04845527
199	0x3d473844	0.048637643
200	0x3bc3f270	0.0059798285
201	0xbcb67aaa	-0.022275288
202	0x3bc28cb0	0.0059371814
203	0xbcc82ede	-0.02443641
204	0x3cc85a8c	0.024457239
205	0x3c7d7fe0	0.015472382
206	0x3cf0ca20	0.029393256
207	0x3c532718	0.012887739
208	0xbd63065a	-0.05542598
209	0xbbed4568	-0.00724094
210	0x3d0b9384	0.03407623
211	0x3d17f808	0.037101775
212	0xbd210b04	-0.039317146
213	0xbb070bf0	-0.002060648
214	0xbce7b4ec	-0.028284512
215	0xbd116496	-0.035496317
216	0xbc6651c0	-0.014057577
217	0xbcbd7e66	-0.02313156
218	0xbd149de7	-0.0362834
219	0xbd32763d	-0.043569792
220	0x3ce27624	0.027644224
221	0xbd54a5c4	-0.0519159
222	0xbd32cb71	-0.043651048
223	0x3d35403e	0.04425072
224	0xbbdd63c0	-0.006756276
225	0x3d0b863c	0.034063563
226	0xbd3d4b6d	-0.04621451
227	0x3ce860b8	0.028366432
228	0x3d55df76	0.052215062
229	0x3cd30920	0.025761187
230	0x3cc1debc	0.023665778
231	0x3ce0c374	0.02743695
232	0xbd066cef	-0.03281873
233	0x3d4b3fba	0.04962132
234	0xbd53d313	-0.051714968
235	0x3a0d3c80	0.00053877383
236	0xbd2dae12	-0.042402335
237	0xbd5e6664	-0.054296866
238	0xbd307d30	-0.043088138
239	0x3c0e3b48	0.008681126
240	0x3c5e4f80	0.013568759
241	0xbd3a65c4	-0.045507208
242	0xbc9b4fe4	-0.018958993
243	0xbc8af844	-0.016964085
244	0x3d510124	0.05102648
245	0xbcbf5898	-0.023357674
246	0xbd0dc312	-0.03460986
247	0xbd3afdad	-0.04565208
248	0x3d0b6bf0	0.034038484
249	0xbe3890d5	-0.18023999
250	0x3cf942b8	0.030427322
251	0x3d0f56d2	0.034994908
252	0x3c82aacc	0.015950583
253	0x3d663758	0.056205124
254	0xbd61f5dd	-0.055166114
255	0xbc5091f4	-0.01273011

bias f4 [32]
0	0xbe407aa7	-0.18796788
1	0xbdc1cfbc	-0.0946345
2	0x3d1b1782	0.037864216
3	0xbe41a4ca	-0.18910518
4	0xbe6f8458	-0.23390329
5	0xbd98c71d	-0.07459853
6	0xbe4eef5f	-0.202085
7	0xbe080c4b	-0.1328594
8	0xb974652f	-0.00023307347
9	0xbe01cf93	-0.1267684
10	0xbd901569	-0.07035334
11	0xbe59bf68	-0.21264422
12	0xbe1f1c34	-0.15538102
13	0xbd9439b4	-0.072375685
14	0xbdd5b256	-0.104344055
15	0xbd581d30	-0.05276221
16	0xbdbc1564	-0.091837674
17	0xbd0d6fac	-0.034530327
18	0xbe3963e5	-0.18104513
19	0xbe014b98	-0.12626493
20	0xbde65046	-0.1124578
21	0xbe25029d	-0.16114278
22	0x3d0ed870	0.03487438
23	0x3dfc8123	0.123293184
24	0xbca06e42	-0.019583825
25	0xbe379191	-0.17926623
26	0x3cc45864	0.02396793
27	0x3cea90f4	0.028633572
28	0xbe617037	-0.22015463
29	0xbd625dcb	-0.05526523
30	0xbca51829	-0.020153122
31	0x3cb9c5ac	0.022677265

weight f4 [64, 32]
0	0x3c3bd420	0.011464149
1	0x3adab55e	0.0016686132
2	0x3d37cc74	0.044872716
3	0x3d0273f4	0.031848863
4	0x3dab91ee	0.08377443
5	0x3d1670f7	0.036728825
6	0xbe9f9050	-0.3116479
7	0x3c25d3fb	0.010121341
8	0xbc4a7d7d	-0.01235902
9	0x3e2048a9	0.15652718
10	0xbe5cdecf	-0.2156937
11	0x3be5ae60	0.0070093125
12	0xbd066d9c	-0.032819375
13	0x3df22af8	0.11824602
14	0x3e9952b6	0.29945916
15	0xbd7b1040	-0.061294794
16	0x3e854199	0.2602661
17	0xbdf0a49c	-0.11750147
18	0x3e94118c	0.28919637
19	0x3cad4ea0	0.021155655
20	0x3e776f07	0.24163447
21	0x3e934793	0.28765544
22	0x3dc37289	0.0954333
23	0x3e38198f	0.179785
24	0xbdc6e8ba	-0.09712358
25	0xb880eb84	-6.147384e-05
26	0xbce33d30	-0.027739137
27	0x3e00f0e7	0.12591897
28	0x3d33b99c	0.043878183
29	0x3ddd69b6	0.108111784
30	0x3e3b3253	0.18280916
31	0x3c815c60	0.015791118
32	0x3e16da39	0.14731683
33	0x3d8fed18	0.07027644
34	0x3e2982a9	0.16553749
35	0x3d36b2b8	0.044604033
36	0xbdea465a	-0.114392
37	0xbd1f7fdc	-0.038940296
38	0x3cace73a	0.021106351
39	0xbe33490a	-0.17508331
40	0x3db76199	0.08954162
41	0x3e166a73	0.14689045
42	0xbdeeda1e	-0.11662696
43	0x3cb4a448	0.022050992
44	0xbcb98b10	-0.022649318
45	0x3e135662	0.14388421
46	0xbe2058bf	-0.15658854
47	0xbd7b4da8	-0.061353356
48	0xbe346c7f	-0.17619513
49	0x3ddf102e	0.10891758
50	0x3da34cd2	0.07973637
51	0xbe14fc66	-0.14549407
52	0xbe33e0f8	-0.17566288
53	0x3de3adee	0.11117159
54	0x3e237a60	0.15964651
55	0xbdf76ecd	-0.120816804
56	0x3ce4d678	0.027934298
57	0x3e1fe8a9	0.15616097
58	0xbdb7a234	-0.08966485
59	0x3da7553e	0.081705555
60	0x3dcf0532	0.10108413
61	0xb9b11c00	-0.00033780932
62	0xbc7365a9	-0.014855781
63	0xbde95cf1	-0.1139468
64	0x3da498c1	0.08036948
65	0xbdd6c6d0	-0.10487139
66	0x3de9b152	0.11410774
67	0x3e01b30e	0.1266596
68	0x3e47fbe7	0.19529687
69	0xbe9c579d	-0.30535594
70	0xbdafbd18	-0.08580989
71	0xbe60cb9e	-0.21952674
72	0xbe612ad4	-0.21988994
73	0x3e5d2e3b	0.21599667
74	0x3bcabb60	0.0061868876
75	0x3e028970	0.12747741
76	0x3d7bd729	0.06148449
77	0xbe101560	-0.14070654
78	0xbe275ae8	-0.16343272
79	0xbcb5f5d8	-0.022211954
80	0x3d2524cb	0.04031829
81	0xbc9bca18	-0.019017264
82	0x3c4ead13	0.012614506
83	0x3dbcff07	0.0922833
84	0xbc3782b4	-0.011200596
85	0xbd95f4c5	-0.07322077
86	0xbe8a5ec8	-0.27025437
87	0xbe8bd2fe	-0.27309412
88	0xbdeefe26	-0.11669569
89	0xbdb3e99a	-0.0878479
90	0xbdc1a511	-0.09455312
91	0xbd6beb1e	-0.057597272
92	0x3e9be191	0.3044553
93	0x3e30bbe3	0.17259173
94	0xbe827b0b	-0.254845
95	0xbd77ed44	-0.06052901
96	0xbc36817f	-0.011139273
97	0xbe919436	-0.28433388
98	0xbd31c084	-0.043396488
99	0x3e8fe7fc	0.28106678
100	0xbe1943cd	-0.1496727
101	0xbe98c862	-0.2984038
102	0xbdaee82d	-0.08540378
103	0x3de9b0d1	0.11410678
104	0xbd039cf5	-0.032132108
105	0xbdd9e697	-0.10639685
106	0x3e02eec7	0.12786399
107	0xbe37bfdb	-0.17944281
108	0xbc642992	-0.013925927
109	0x3d5dab60	0.054118514
110	0xbdb6d870	-0.08928001
111	0xbdedf586	-0.116190955
112	0xbd9f2b68	-0.07771951
113	0x3dcee966	0.10103111
114	0xbd856df5	-0.06515113
115	0xbe3310be	-0.17486855
116	0xbe7ea586	-0.2486783
117	0xbeab4d20	-0.3345728
118	0xbe1d80bc	-0.1538114
119	0xbe601e04	-0.2188645
120	0x3d1d0990	0.038339198
121	0x3d02eee0	0.03196609
122	0xbdc65e6b	-0.096859775
123	0xbd2e6578	-0.042577237
124	0xbe5e3b6d	-0.21702357
125	0x3c8001a8	0.01562579
126	0xbdfffee3	-0.12499788
127	0xb942dc00	-0.00018583238
128	0xbcd65920	-0.026165545
129	0x3e260ae1	0.16215087
130	0xbdbdad36	-0.09261553
131	0x3ddee54e	0.1088358
132	0xbe1d2fde	-0.15350291
133	0xbcbebec0	-0.023284316
134	0x3d0d9d74	0.034573987
135	0x3de23196	0.11044614
136	0xbd1c80d4	-0.038208798
137	0xbe052d78	-0.13005626
138	0xbe21e067	-0.15808259
139	0xbdb5da6e	-0.08879553
140	0x3da07d92	0.07836451
141	0xbe079efc	-0.13244241
142	0xbe20166e	-0.15633556
143	0xbd92dc04	-0.07170871
144	0xbe00318b	-0.12518899
145	0x3e1a9669	0.1509644
146	0x3dabad8e	0.08382712
147	0x3db79306	0.08963589
148	0xbdb5e26b	-0.088810764
149	0xbda9a515	-0.0828344
150	0x3cf69008	0.030097976
151	0x3bee0200	0.007263422
152	0x3e0d366f	0.13790296
153	0x3d94eddc	0.072719306
154	0xbdc352b1	-0.095372565
155	0xbe26c4b3	-0.16285972
156	0xbe2856ec	-0.16439408
157	0x3dd162f2	0.102239504
158	0xbe0fb609	-0.14034285
159	0x3d6e77d0	0.05821973
160	0x3e26a627	0.1627432
161	0xbd8cb977	-0.06871312
162	0xbe04c624	-0.1296621
163	0x3c782bf0	0.015147194
164	0x3e64d35a	0.22346249
165	0xbe9bb5af	-0.3041205
166	0xbdc2ecab	-0.09517797
167	0xbe69f8f4	-0.22848874
168	0xbe18da18	-0.14926946
169	0x3e6db487	0.23213397
170	0x3cd84238	0.026398763
171	0x3e82c0ea	0.25537807
172	0x3e4e831e	0.20167205
173	0xbe242af9	-0.16032018
174	0x3d0e17a8	0.03469053
175	0xbe31452a	-0.1731154
176	0x3c0ce9cb	0.008600662
177	0xbe2a8a8c	-0.16654414
178	0xbe6b04df	-0.22951077
179	0x3e59622d	0.21228857
180	0xbca32236	-0.019913774
181	0xbd4cf65d	-0.050039638
182	0xbe247c7f	-0.16063116
183	0xbe932cbf	-0.28745076
184	0xbdc272a0	-0.09494519
185	0xbd8f19b6	-0.06987326
186	0x3d88ba9a	0.066762164
187	0x3d6e76e0	0.058218837
188	0xbe081aea	-0.13291517
189	0xbdcfdce6	-0.10149555
190	0xbddff924	-0.10936192
191	0x3d2d891c	0.042367086
192	0xbd18265c	-0.037145957
193	0xbcf1eaaf	-0.029530851
194	0x3e1d450d	0.15358372
195	0x3cdb5160	0.026772201
196	0xbdd1381f	-0.102157824
197	0xbde6dcea	-0.11272605
198	0xbd35d8f4	-0.044396356
199	0xbe824773	-0.25445136
200	0xbea837ba	-0.32855016
201	0x3dd9acf2	0.1062869
202	0x3e221577	0.158285
203	0xbd074c18	-0.033031553
204	0x3d77eb4c	0.06052713
205	0x3e1a623f	0.1507654
206	0xbd8553c8	-0.06510121
207	0xbe1f7fc8	-0.15576088
208	0x3bdc251d	0.0067182914
209	0xbdedc259	-0.116093345
210	0xbeab395c	-0.334422
211	0xbdfba4b0	-0.12287271
212	0xbe8783f1	-0.2646785
213	0xbe15a412	-0.14613369
214	0x3d5579d4	0.052118137
215	0xbdb0841f	-0.0861895
216	0x3dbe9c1e	0.09307121
217	0x3df133c2	0.1177745
218	0x3d9a06b6	0.07520811
219	0xbd0ad7c8	-0.03389719
220	0xbdd449c6	-0.10365634
221	0xbe2d7cd0	-0.16942143
222	0xbea76d9e	-0.3270082
223	0x3c9fd448	0.019510403
224	0x3d0d8fc8	0.03456095
225	0xbe9843a4	-0.29739106
226	0xbd30f050	-0.04319793
227	0xbd3cebec	-0.04612343
228	0xbd372878	-0.04471633
229	0xbe17dd95	-0.1483062
230	0xbe18e444	-0.14930826
231	0xbe9fc80b	-0.31207308
232	0xbe9aa74d	-0.30205765
233	0x3e31d675	0.17366965
234	0xbd0f270c	-0.034949347
235	0xbd9a0fdd	-0.07522557
236	0xbd110c24	-0.03541197
237	0xbd58757c	-0.052846417
238	0xbe818bd5	-0.25301996
239	0x3d89f8ee	0.06736933
240	0x3b8716e8	0.0041226037
241	0x3dfab962	0.1224239
242	0xbcc68f4d	-0.024238253
243	0xbe1b7b7e	-0.15183827
244	0xbe88474f	-0.26616904
245	0xbc2aaa6d	-0.010416609
246	0xbe801d89	-0.25022534
247	0xbe2a2960	-0.16617346
248	0xbde29707	-0.110639624
249	0xbdca9668	-0.09891969
250	0x3dde10f2	0.10843076
251	0xbdc05838	-0.093918264
252	0xbe261801	-0.16220094
253	0x3e1ac635	0.15114672
254	0xbde5c8d3	-0.11219945
255	0x3e1011b3	0.14069252

bias f4 [64]
0	0x3c5b3856	0.013380131
1	0xbded8c2a	-0.11599
2	0x3c141415	0.009037991
3	0xbe64702e	-0.22308418
4	0xbdd2f320	-0.10300279
5	0xbe0e0cab	-0.1387202
6	0xbe7d2266	-0.24720153
7	0xbe939115	-0.28821626
8	0xbe585fe1	-0.21130325
9	0xbd117c5d	-0.035518993
10	0xbe076e42	-0.13225654
11	0xbe8799b3	-0.2648445
12	0x3e7a3a49	0.24436297
13	0xbe0ca9b3	-0.1373661
14	0xbe097b09	-0.1342584
15	0xbdc70585	-0.0971785
16	0xbe1f283c	-0.15542692
17	0xbea6a9f3	-0.32551536
18	0x3d39cb3c	0.045359835
19	0xbe03bada	-0.12864247
20	0xbe4584c9	-0.19288935
21	0xbd08e64c	-0.033422753
22	0xbc8b67b5	-0.017017225
23	0x3d571008	0.052505523
24	0x3e0b1cb0	0.13585162
25	0xbe39a320	-0.18128633
26	0xbdb3be6a	-0.08776553
27	0xbe869aef	-0.2629008
28	0xbbf76eab	-0.0075510344
29	0xbe2a8f99	-0.1665634
30	0xbd8ca25f	-0.06866907
31	0x3c9bf170	0.019036025
32	0xbd91bb9a	-0.0711586
33	0x3d204e70	0.039137304
34	0xbddc7efa	-0.10766406
35	0xbe00aa52	-0.12564972
36	0xbe57be6c	-0.21068734
37	0xbde077f9	-0.10960383
38	0xbde71bde	-0.11284612
39	0xbddbcf6f	-0.10732924
40	0xbe0b3ff6	-0.13598618
41	0x3d30d55c	0.043172225
42	0xbd7adbcd	-0.061244775
43	0x3d2b5260	0.041826606
44	0x3e17cda6	0.14824542
45	0xbe1a0e66	-0.15044555
46	0xbdbb0075	-0.091309465
47	0xbe860beb	-0.26180968
48	0x3d57aff6	0.052658044
49	0xbcafd548	-0.021464005
50	0x3ce93d68	0.028471664
51	0xbc558b03	-0.013033631
52	0xbd77e6c4	-0.06052281
53	0x3e99f304	0.3006822
54	0xbcc9f276	-0.024651747
55	0xbd69fd23	-0.057126176
56	0xbda86d40	-0.08223963
57	0xbdb8e83a	-0.09028669
58	0xbe5bb04b	-0.21453969
59	0xbdb4afc9	-0.08822591
60	0xbd6b2d1a	-0.05741606
61	0xbde86e39	-0.11349148
62	0x3b91d600	0.0044505596
63	0xbd797e16	-0.06091126

weight f4 [8, 64]
0	0xbe91bd1b	-0.2846459
1	0xbd2d2a3f	-0.042276617
2	0xbe0eed27	-0.13957654
3	0x3e513ddf	0.20433758
4	0x3bbd9260	0.0057852715
5	0xbe837eda	-0.25682718
6	0xbe378634	-0.17922288
7	0xbddc8bd6	-0.10768859
8	0x3e268d5c	0.16264862
9	0x3e7b306f	0.24530195
10	0x3e6ad803	0.22933964
11	0x3dad46f3	0.08460798
12	0xbe543cbb	-0.20726292
13	0x3c6afd70	0.014342651
14	0xbe434d42	-0.1907244
15	0xbe5d767d	-0.21627231
16	0xbd9e696c	-0.077349514
17	0xbde826da	-0.11335535
18	0xbdf61773	-0.12016191
19	0x3df73154	0.120699555
20	0xbe128b96	-0.1431106
21	0x3db0df6a	0.08636363
22	0x3e763bbd	0.24046226
23	0xbe07c4b5	-0.13258632
24	0xbd87d880	-0.06633091
25	0xbdd60db9	-0.10451836
26	0xbd89c2db	-0.06726619
27	0xbdbe310f	-0.09286701
28	0xbe771c9e	-0.2413201
29	0xbe5e8a72	-0.217325
30	0xbd953fe9	-0.072875805
31	0xbd214348	-0.039370805
32	0xbd844a4a	-0.06459482
33	0xbc813638	-0.015772924
34	0x3d9ba789	0.07600314
35	0x3dee7edc	0.1164529
36	0xbdc4ece5	-0.096154965
37	0x3d8a7100	0.06759834
38	0x3e14ca44	0.14530283
39	0xbdbb90e0	-0.09158492
40	0x3e6caf80	0.23113823
41	0xbd7bdb17	-0.061488237
42	0x3df646f3	0.12025251
43	0xbe257f5d	-0.16161866
44	0x3e4ce595	0.20009454
45	0xbbf11340	-0.007357031
46	0xbe4a85b0	-0.1977756
47	0xbda4f2cb	-0.080541216
48	0x3d62a08a	0.055328883
49	0x3bb44d20	0.005502358
50	0xbcc6a758	-0.024249718
51	0x3d889beb	0.06670364
52	0x3dfe280f	0.12409984
53	0x3d39eb7c	0.04539059
54	0x3e52d2dd	0.2058825
55	0x3e1d8ae8	0.1538502
56	0x3e4eaf39	0.2018403
57	0x3e4d27dd	0.20034738
58	0xbd676db4	-0.056501105
59	0x3d134bec	0.035961077
60	0x3dbcc6dc	0.09217617
61	0xbe11cddd	-0.14238687
62	0x3d8997bc	0.06718394
63	0xbc0ec025	-0.008712803
64	0x3e819f0c	0.25316656
65	0x3e41f805	0.18942268
66	0x3d4ae1ce	0.04953175
67	0xbeab63b3	-0.33474502
68	0x3de0ed4c	0.10982761
69	0x3dbfd4fa	0.09366794
70	0x3e8e1848	0.277529
71	0x3db8e160	0.09027362
72	0xbe12faca	-0.14353481
73	0xbdfda21b	-0.12384435
74	0xbe97da41	-0.29658702
75	0xbe08b4f3	-0.13350277
76	0x3e0c07bd	0.13674827
77	0xbdc4a91e	-0.09602569
78	0x3e453ae3	0.19260745
79	0x3e7ad102	0.24493793
80	0xbd58b830	-0.05291003
81	0x3e6e2479	0.232561
82	0x3dac3f90	0.08410561
83	0xbcf4af10	-0.029868633
84	0x3deca026	0.115539834
85	0xbe8cf78e	-0.2753262
86	0xbd9b759c	-0.075907916
87	0x3e2704fa	0.16310492
88	0x3e4ee969	0.20206226
89	0x3e444592	0.19167164
90	0x3e64ce11	0.22344233
91	0x3e7bd060	0.24591208
92	0x3e8de778	0.2771566
93	0x3e4f227a	0.20227996
94	0x3d87d936	0.066332266
95	0xbd85cbda	-0.06533022
96	0x3e7114ee	0.2354314
97	0x3d5282b8	0.051394194
98	0xbdc76886	-0.09736733
99	0xbe54055c	-0.2070517
100	0x3e45cb78	0.19315898
101	0xbe63ad9d	-0.22234197
102	0x3df1bd53	0.11803689
103	0x3957f800	0.00020596385
104	0x3e641498	0.22273481
105	0x3e745b40	0.23862934
106	0xbd91dc59	-0.07122106
107	0x3e0258a8	0.12729132
108	0xbe32367c	-0.17403597
109	0x3dce1420	0.10062432
110	0x3e1d22f3	0.15345363
111	0x3d7a9ae2	0.061182864
112	0x3e4a1eb9	0.19738282
113	0xbdbdc142	-0.092653766
114	0xbde8d1d4	-0.113681465
115	0xbd9436c4	-0.07237008
116	0xbe7b0405	-0.24513252
117	0x3e48be63	0.19603877
118	0xbe90d78d	-0.28289452
119	0xbe6c9683	-0.2310429
120	0xbdaaf03a	-0.08346601
121	0xbe68100e	-0.22662374
122	0x3d347e24	0.04406561
123	0xbb0d1a40	-0.0021530539
124	0x3dd618ec	0.10453972
125	0x3e5219ed	0.20517702
126	0x3de87516	0.11350457
127	0x3e6eeee7	0.23333322
128	0x3c9199ca	0.017773528
129	0xbeb89b3c	-0.36055934
130	0x3e276f88	0.1635114
131	0x3cf6a4b3	0.030107832
132	0x3da7d866	0.081955716
133	0x3de938c1	0.11387778
134	0xbd805f3f	-0.06268167
135	0x3e8d63e6	0.2761528
136	0x3daca604	0.084301025
137	0x3e56e53b	0.20985882
138	0x3d90c85f	0.07069468
139	0x3de73791	0.11289895
140	0x3e08ebbc	0.13371176
141	0x3dbe2146	0.0928369
142	0x3dc1ab7e	0.09456538
143	0x3e82c208	0.2553866
144	0x3dd8bbde	0.10582708
145	0x3e86714b	0.2625831
146	0xbe029b66	-0.12754592
147	0x3dc03c7a	0.09386535
148	0x3e6cf27e	0.23139378
149	0x3e82feff	0.25585172
150	0x3e1800e1	0.14844085
151	0x3e1c6e95	0.15276559
152	0xbe4da6e9	-0.20083202
153	0x3e3bfd73	0.18358402
154	0x3e216669	0.15761723
155	0x3d8d60d9	0.06903238
156	0x3e018322	0.1264768
157	0x3e5c3e1b	0.21508066
158	0x3e019344	0.12653834
159	0xbdd3a836	-0.10334818
160	0x3cf5a93b	0.029987922
161	0xbd42f010	-0.047592223
162	0x3d6bc529	0.057561073
163	0x3d808a93	0.06276431
164	0x3e6b032f	0.22950433
165	0xbe8c3639	-0.2738512
166	0xbe3a305b	-0.18182509
167	0xbce4c250	-0.027924687
168	0xbd6a6447	-0.05722454
169	0xbe385f28	-0.18005049
170	0x3d7fedef	0.06248277
171	0x3ea1259a	0.31474
172	0xbd965686	-0.07340722
173	0xbd165f60	-0.03671205
174	0xbd5854ef	-0.052815374
175	0x3e41db76	0.18931374
176	0xbd952394	-0.072821766
177	0xbdee2322	-0.11627795
178	0x3d902dae	0.07039963
179	0x3e31b37d	0.17353626
180	0x3e7af715	0.24508317
181	0xbe80a919	-0.2512901
182	0x3e5d69f2	0.21622446
183	0xbe94a67f	-0.29033276
184	0x3e38bd38	0.18040931
185	0x3e429eb8	0.19005859
186	0x3e8b8cfd	0.27256003
187	0x3d8a51de	0.06753896
188	0x3d4f71bc	0.050645575
189	0x3d97b775	0.074080385
190	0xbc7a1610	-0.015264049
191	0x3df3ebc9	0.11910207
192	0xbc6d074e	-0.014467074
193	0x3d5a3788	0.053275615
194	0x3e82838f	0.25490996
195	0x3d86a1ae	0.06573807
196	0xbddf616e	-0.10907255
197	0x3e81112e	0.2520842
198	0x3e5814c9	0.21101679
199	0x3e076a41	0.13224126
200	0x3e062184	0.13098723
201	0x3e8c7a37	0.27436993
202	0x3e7860f7	0.24255739
203	0xbe2a9799	-0.16659392
204	0x3de77fae	0.1130365
205	0xbdf462e8	-0.11932927
206	0x3e2cd50c	0.16878146
207	0x3e025eca	0.12731472
208	0xbcf0cb18	-0.029393718
209	0x3e0e049c	0.13868946
210	0xbd2946b1	-0.041327182
211	0xbd520224	-0.051271573
212	0x3e213dac	0.15746182
213	0x3dc1ef07	0.09469419
214	0x3dc4d6c0	0.09611273
215	0x3dc4cc28	0.09609252
216	0xbdaa2f4f	-0.08309805
217	0x3dc3e49c	0.09565088
218	0x3ca609d1	0.020268353
219	0x3e6b4b78	0.22978008
220	0x3c1a77f4	0.009428013
221	0x3e051e2d	0.12999792
222	0x3e2a90a8	0.16656744
223	0x3da6fbf4	0.08153525
224	0x3d184708	0.037177116
225	0xbd0857a4	-0.033286706
226	0x3db20640	0.08692598
227	0x3e5c5baf	0.2151935
228	0x3d877bab	0.06615385
229	0x3e1c76d1	0.152797
230	0xbdecf6bc	-0.11570498
231	0x3dd7cef0	0.10537517
232	0x3c936c0e	0.01799586
233	0x3d4ef02f	0.050522026
234	0x3e599869	0.21249546
235	0x3e56ec3a	0.20988551
236	0x3e151276	0.14557824
237	0xbdb0cdc2	-0.08632995
238	0x3e11afae	0.14227173
239	0x3e44d1e9	0.192207
240	0xbe5913e9	-0.21199001
241	0x3dd10282	0.102055565
242	0xbdbf37ec	-0.09336838
243	0x3e75f95b	0.24020903
244	0x3e0071d8	0.12543428
245	0xbe25e998	-0.1620239
246	0x3d9f102c	0.077667564
247	0x3e5ae652	0.21376923
248	0x3e0e0d9f	0.13872384
249	0x3e8cd00c	0.27502477
250	0x3e622675	0.22084983
251	0x3dba1fcc	0.09088096
252	0x3d300ae4	0.042979136
253	0x3c752d84	0.014964465
254	0xbd96c2d6	-0.07361381
255	0x3e5cdbdc	0.21568245

bias f4 [8]
0	0xbe0f3e4e	-0.13988611
1	0x3da55595	0.08072964
2	0x3e32c73d	0.17458816
3	0x3e09fe31	0.13475873
4	0x3e907159	0.28211477
5	0xbe917426	-0.28408927
6	0xbe9b161d	-0.3029031
7	0xbe317458	-0.17329538

weight f4 [1, 64]
0	0x3df2ccfd	0.11855505
1	0x3d544730	0.051825702
2	0x3cde503a	0.027137864
3	0xbe17138c	-0.1475355
4	0x3d3bd710	0.045859396
5	0x3ce95fdf	0.028488098
6	0x3d98a673	0.07453623
7	0x3dcc9523	0.09989383
8	0xbe042a5b	-0.12906782
9	0xbe1aab7f	-0.15104483
10	0xbe2d62e2	-0.16932252
11	0xbe0a4c1d	-0.13505597
12	0x3e088be5	0.13334616
13	0x3d0a494c	0.033761308
14	0x3da63bef	0.081169
15	0x3dc5c2ec	0.09656319
16	0x3d67cb14	0.056590155
17	0x3e28140b	0.16413896
18	0x3cc7fb95	0.024411956
19	0x3dd5d7b4	0.10441533
20	0x3c55a0a7	0.013038791
21	0xbe2e2acb	-0.17008512
22	0xbdebaaa2	-0.11507155
23	0x3dc070f8	0.09396547
24	0xbdb0d4d9	-0.086343475
25	0x3e084ac4	0.13309771
26	0x3d20e239	0.039278243
27	0x3d9c4111	0.07629598
28	0x3e1aea4e	0.15128443
29	0x3d841aa4	0.06450394
30	0x3d384717	0.04498967
31	0xbcb08b88	-0.021550909
32	0x3e003c43	0.12522988
33	0xbdb67220	-0.08908486
34	0xbdee5687	-0.116375975
35	0xbd8a4e90	-0.06753266
36	0x3dccee62	0.100064054
37	0xbe3444bc	-0.17604345
38	0xbd78325b	-0.060594898
39	0xbd9ea66a	-0.07746585
40	0xbdd3dd13	-0.10344901
41	0xbd332e2e	-0.043745212
42	0xbd86c6fa	-0.065809205
43	0x3dcffeb2	0.10156001
44	0x3aff0772	0.0019457175
45	0xbd802d22	-0.062586084
46	0xbccc19f6	-0.024914723
47	0x3db4b35c	0.088232726
48	0xbe2fb0a4	-0.17157227
49	0xbdc0b992	-0.09410395
50	0xbdefeb08	-0.117147505
51	0xbe49b03f	-0.19696139
52	0xbdc4ac61	-0.09603191
53	0xbe1cf131	-0.15326382
54	0xbda0b64a	-0.07847269
55	0xbdbde8f1	-0.09272946
56	0xbe16e3cb	-0.14735334
57	0xbe026c6a	-0.12736669
58	0x3dfb21c7	0.12262302
59	0x3c64b630	0.0139594525
60	0xbd675398	-0.056476206
61	0x3db1d596	0.086833164
62	0xbd392bf8	-0.045207947
63	0x3dc7879b	0.097426616
